Examenes/Examen Final/resultados_modelo_20241125_235028/model.pth (torch, 4800 bytes, 4 tensors)

0.weight f4 [20, 14]
000000 3b 22 89 be 08 38 d0 bd 40 74 3f bc dd a8 52 bd
       -0.26783928 -0.10166937 -0.011685431 -0.05143057
000010 31 94 07 3e b6 9c 73 3e 48 a7 1a 3d e6 a4 e3 3d
       0.13240124 0.23790249 0.037757188 0.11115436
000020 c4 29 d0 3e af d6 6e 3e b2 aa 53 3e 75 a4 01 be
       0.40656865 0.23324083 0.20670584 -0.12660392
000030 97 ef 46 be ff 25 47 3d 3a 80 e2 3d 30 69 43 3d
       -0.19427334 0.04862022 0.110596135 0.047707736
000040 23 82 37 be 27 ec c7 3d 6a 2d 34 bd 05 ee b2 3d
       -0.17920737 0.09761839 -0.043988623 0.08736805
000050 be 50 a9 bd 73 7a 5b be 7d 56 a3 be 9e 35 04 bf
       -0.082673535 -0.2143343 -0.31901923 -0.51644313
000060 3e d0 bf bb c8 95 51 bd 60 50 6a 3e 55 ab c1 3d
       -0.005853682 -0.051168233 0.22882223 0.09456507
000070 7c 66 c7 bc 14 52 24 3e 11 2d 12 be 53 29 83 3d
       -0.02434086 0.16046935 -0.14275004 0.06404366
000080 81 1b 30 3c f1 f1 f7 bc 30 23 32 3d ed 50 87 bc
       0.010748745 -0.030266734 0.04349059 -0.01651808
000090 58 1d c5 bd cb c3 f0 3e ac 7d 1e be c4 b3 68 3d
       -0.096247375 0.47024378 -0.15477628 0.056812063
0000a0 4a bd c8 bd 7e 74 1c be 10 12 dc 3d 98 02 1d bd
       -0.09801729 -0.15278813 0.10745633 -0.03833255
0000b0 08 6a 80 be e5 ef 6b be e8 77 d1 3d bf cf 3d be
       -0.25080895 -0.23040731 0.102279484 -0.1853628
0000c0 33 ae 62 be 87 05 5a 3e 98 3d bf be 28 5c 07 bf
       -0.22136764 0.21291171 -0.3735168 -0.52874994
0000d0 97 aa 34 be f2 7a 2d be 56 69 d8 3e 8a 58 8f 3d
       -0.176432 -0.16941431 0.42267865 0.06999309
0000e0 b3 09 5c be 3f 08 77 be f3 c0 4b be 79 46 32 be
       -0.21488075 -0.2412424 -0.19897823 -0.17409696
0000f0 d8 00 1d 3d b1 f5 39 3e 90 18 30 be 94 79 e1 3d
       0.038330883 0.1816013 -0.1719687 0.11009517
000100 ab e4 ae 3e 49 cf 21 3e 37 37 58 3e 64 dd 32 3d
       0.34158835 0.1580173 0.21114813 0.043668166
000110 86 47 42 be 0d 96 06 be 69 bd eb ba 0f 84 2f be
       -0.18972597 -0.13143177 -0.0017985526 -0.1714022
000120 94 85 5e be 83 19 59 3e e2 1a d5 3d cc 51 19 3d
       -0.21730644 0.21201138 0.10405518 0.037431523
000130 06 6b 62 be 97 53 c3 3d 88 f2 de 3c e7 d0 9d 3e
       -0.22111139 0.09537428 0.027215257 0.30823442
000140 b6 da c7 bd 46 25 66 3e c2 ac 00 bf 31 a7 81 3e
       -0.09758513 0.22475156 -0.5026361 0.2532287
000150 81 86 21 be 0c 60 0c be 80 8f 35 bb ef ac 0a 3d
       -0.15773965 -0.13708514 -0.002770394 0.03385633
000160 8a 17 7f 3e 42 fd 29 3c 90 5c d0 3c dd 8e 6e bd
       0.24911323 0.010375323 0.025434762 -0.058241714
000170 e6 a4 89 3d ac 38 02 3f 3e 5c 5f bd 17 88 d3 ba
       0.06720905 0.50867724 -0.05453133 -0.001613858
000180 4a 5c 7f be 2c 7b 5b 3e b3 2d 15 be 5a d9 10 be
       -0.24937549 0.21433705 -0.14568214 -0.14145413
000190 44 70 da 3d b0 94 83 be c5 db 9f 3d 26 ef 2a bd
       0.10665944 -0.25699377 0.078055896 -0.041731976
0001a0 79 6b 55 be 1b ca 0f be 1d 81 53 3d a4 ff b4 3d
       -0.20841779 -0.14041941 0.051636804 0.08837822
0001b0 ec 5e ec bd 9e c9 5c be f8 5e 86 3e e0 21 90 be
       -0.115415424 -0.21561286 0.2624433 -0.28150845
0001c0 96 45 02 3e 2e 84 57 3e f8 42 9b bc 3f 50 1d 3e
       0.12721857 0.21046516 -0.018952832 0.15362643
0001d0 78 93 1d 3e cb 4f 2b 3e 36 f6 77 be 4c 6f 8c be
       0.15388286 0.16729657 -0.24215016 -0.27428663
0001e0 c7 73 90 be 7f 86 ed be c1 0c 98 3d a4 7c ac bd
       -0.2821333 -0.46391675 0.074243076 -0.08422211
0001f0 8f 72 a1 3e ee d4 19 be d8 3a 3c be 7c 5e 02 3e
       0.31532714 -0.15022632 -0.18381822 0.12731355
000200 f6 d4 23 be a6 61 f8 3d 3e 2d 41 bd 55 61 0a 3e
       -0.15999207 0.12128 -0.047162287 0.13513692
000210 74 be b5 3d 96 8e 59 bc c3 89 be be 0e 05 30 bf
       0.08874217 -0.013278624 -0.3721448 -0.6875771
000220 35 61 4d 3e 49 a3 e0 3d 17 e5 f9 3e 83 18 ab be
       0.20056613 0.10968644 0.48807594 -0.33417138
000230 8d 57 ac 3d 9c ff 30 3e d8 d5 e4 bc b8 5b ce bd
       0.084151365 0.17285007 -0.027934 -0.10076088
000240 31 7d e5 bd 9d f1 3a 3c 8c eb 4e 3e 17 1f a8 bd
       -0.11205519 0.011410144 0.20207042 -0.08209055
000250 fe 63 e0 3e bc 57 28 3f 0c 32 d1 3d 43 28 47 3e
       0.43826288 0.6575887 0.10214624 0.19448952
000260 62 58 41 be 12 2e 8f 3e 82 db 05 3e dc 0c 5a 3e
       -0.18881372 0.27964836 0.13072017 0.21293968
000270 10 ff 76 bd 61 b3 16 3e b2 b3 6f bc ea e5 7a bd
       -0.06030184 0.14716865 -0.014630245 -0.06125442
000280 c0 bb 15 3d a3 63 29 be 5b 69 ad bd 0e d1 aa 3d
       0.036556005 -0.16541915 -0.084673606 0.08340655
000290 88 0b 66 be ed f4 e6 bd a6 b8 81 3e 8b cb 18 be
       -0.22465336 -0.11277185 0.25336188 -0.14921395
0002a0 e6 d2 e2 3d 9a 20 58 3e 22 09 0b be 28 13 1c be
       0.11075382 0.21106187 -0.13577703 -0.15241683
0002b0 a8 cd 1d be 96 7b 20 bd 17 3a 13 be 12 ec 3e 3d
       -0.15410483 -0.03918036 -0.14377628 0.046611853
0002c0 c1 91 39 3e 01 64 b6 3e 2c d9 77 3e 3b fc 8d 3e
       0.18122007 0.35623172 0.24203938 0.277315
0002d0 82 ae a8 3b a1 5d 75 3c 39 c1 c5 3c 9c 4b f5 3d
       0.005147756 0.014975936 0.024139987 0.11977312
0002e0 c6 f6 82 be 94 18 17 3e 05 26 bc bd 2c d0 66 3d
       -0.25578898 0.1475547 -0.09186939 0.056350872
0002f0 24 e9 13 be ef d4 15 be 1f 00 99 3e 55 60 34 3f
       -0.14444405 -0.14632009 0.29882905 0.7045949
000300 bf 76 cf 3d d0 c5 8b bd fb a3 c5 be 94 f8 77 3d
       0.10130071 -0.06824839 -0.3860167 0.060539797
000310 c7 19 35 3e 66 2f 24 be 51 45 84 3e fd d4 f9 3d
       0.17685615 -0.16033706 0.25834134 0.121988274
000320 31 b0 cc bc e5 66 0d be bc 51 6e be 38 d4 50 be
       -0.024986358 -0.13808782 -0.23273367 -0.20393455
000330 8b 68 ca bd f4 cf c2 3e 76 79 7a be 2c 5b 16 be
       -0.09883221 0.3804928 -0.24460396 -0.14683217
000340 45 88 0a 3e 24 bc 04 3e a3 1c 46 3e 28 ad 3e 3d
       0.13528545 0.12962395 0.19346862 0.046551853
000350 00 39 2a 3b 83 30 c3 3c ba 69 16 be 4e 8b 3b bd
       0.0025973916 0.023826843 -0.14688769 -0.04578715
000360 f4 f8 0b 3e af 59 00 3e 3f d2 13 be 78 a2 df be
       0.13669187 0.12534212 -0.14435671 -0.4367864
000370 f3 d7 50 3e 98 c8 6c be dc fb da bd 71 cb d5 3d
       0.20394878 -0.23123395 -0.106925696 0.10439194
000380 8a 58 9c bd c4 a4 6d 3e d8 b5 d4 bd ee 87 2b be
       -0.07634075 0.23207384 -0.103862464 -0.16751072
000390 e6 89 12 3d 06 55 1f be 0c f4 6b 3e d9 12 52 be
       0.03577604 -0.15559778 0.23042315 -0.20515002
0003a0 3f c6 3a be fc 44 f8 be c0 4d 0a 3e ff 22 4d be
       -0.18239687 -0.4849013 0.13506222 -0.20032881
0003b0 a8 a0 80 3e 53 33 7d bc 3d 69 42 3e 9c 4f 22 bd
       0.2512257 -0.015454131 0.18985458 -0.039626703
0003c0 fc 17 d8 3d ec be 86 3d 7a f2 1a be 9e 69 e3 bc
       0.1055145 0.06579384 -0.1513156 -0.027760323
0003d0 00 54 7c bc 8c dc 3e 3e c2 e1 a4 be 9a 10 0a bf
       -0.015400887 0.1863882 -0.3220349 -0.5393158
0003e0 bb a9 31 3d d4 52 27 be e1 ec f3 3d 92 6a b6 ba
       0.04337476 -0.1634019 0.119104154 -0.0013917258
0003f0 74 e6 29 bd 0c c5 bd 3d 16 21 a1 bd 37 52 65 be
       -0.041479543 0.09266099 -0.07867639 -0.22394644

0.bias f4 [20]
000000 ed 96 bf bb 76 0b b6 3b a4 2b b4 bd 97 d9 32 be
       -0.005846849 0.0055555655 -0.08797386 -0.17465816
000010 c5 83 ac 3c d7 2d bb 3d 47 25 5e be 28 db 5c 3e
       0.021058926 0.09139603 -0.21693908 0.21567976
000020 74 c7 95 bb d1 93 f9 3c 75 1b 33 3e c2 07 79 3d
       -0.004570896 0.030465992 0.17490943 0.060798414
000030 95 d0 26 be da 92 c1 bd 31 7a 73 be 8d d1 a3 bc
       -0.16290505 -0.09451838 -0.23777081 -0.019997383
000040 f5 6a 0c 3e 03 7e 57 3e 59 4a 72 be 1c 02 00 be
       0.13712676 0.21044163 -0.23661174 -0.12500805

2.weight f4 [2, 20]
000000 bd 6f 9e 3e ad 0a d8 be d4 1f f6 3e 64 c4 ce be
       0.30944625 -0.42195645 0.48071158 -0.4038421
000010 39 da a5 3e 21 94 e7 3e dc 81 a6 3e 73 68 4f bd
       0.32393053 0.452302 0.3252095 -0.05063672
000020 9d 9e 15 bf df 10 3b bf ea 27 28 3f 5b c5 bc 3c
       -0.5844515 -0.7307262 0.65685904 0.023043325
000030 98 43 d5 3e 96 ac 3a 3f 8a 56 27 3e aa b2 46 be
       0.41653132 0.72919595 0.16341606 -0.19404092
000040 b0 c3 bc be 23 eb cc be 42 89 75 be f6 c7 b4 bd
       -0.36868048 -0.40023145 -0.23978141 -0.08827202
000050 f0 71 d1 be 9d c6 d5 3e fa 25 8e bd 84 40 18 3f
       -0.4090724 0.41753092 -0.06940837 0.59473443
000060 fd 1d 23 be 8d 10 e8 be ad e5 f1 be 68 91 c9 3c
       -0.15929408 -0.45325127 -0.4724554 0.024605468
000070 17 d6 7b 3e a1 3b 17 3f be d6 38 bf 88 8a c1 3d
       0.24593388 0.5907536 -0.7220267 0.09450251
000080 12 07 4c be 66 40 13 bf 1d 04 71 be 68 4c 8b 3e
       -0.19924572 -0.5752014 -0.23536725 0.2720673
000090 61 e6 cf 3e cc f4 d2 3e 47 24 f4 bb 50 e1 c2 3c
       0.40605453 0.4120239 -0.0074506137 0.023789078

2.bias f4 [2]
000000 42 c7 c4 bb 69 b2 2b 3d
       -0.0060051987 0.041918192
