Examenes/Examen Final/resultados_modelo_20241125_223319/model.pth (torch, 4800 bytes, 4 tensors)

0.weight f4 [20, 14]
0.2217474 0.06796172 0.25103042 -0.13905826 -0.07710172 0.07690326 -0.16072461 -0.17556493
0.27440727 0.23225677 -0.08733893 0.01851595 0.037178133 -0.114364006 0.07608538 0.10516611
0.104931325 0.25960395 -0.13942692 0.16867743 0.23119381 -0.08807714 0.091091305 0.3697337
-0.07335217 0.013612619 -0.22701417 -0.14843135 -0.25758958 -0.24497014 0.042671233 0.23433402
0.061177325 0.080765344 0.22726169 -0.16300821 0.21386793 0.47053203 0.03290653 -0.106820725
-0.0052037505 -0.068302765 -0.13677621 0.0678637 -0.07780106 -0.06409696 0.23921552 0.005980564
0.21442032 -0.21405831 0.1745472 0.12040051 -0.138028 0.08125821 -0.20551422 -0.15350902
-0.10214412 0.23391935 -0.16312408 -0.21925893 -0.07900596 0.23432404 -0.09058413 -0.21816349
-0.29758316 -0.42721006 -0.19795121 -0.1297322 -0.017667292 -0.008509101 -0.04968574 0.09584382
-0.11652768 -0.17493379 -0.19664823 -0.06201754 -0.05946654 0.0060218135 -0.10673179 -0.36119157
-0.20874088 -0.37540215 0.03626111 0.043926165 -0.07988206 -0.22439778 0.09687653 0.099482305
-0.10215372 0.1648143 0.017848521 -0.17650916 -0.36484602 -0.36624813 -0.15712902 -0.116573155
0.19507018 -0.14364511 0.16619483 -0.19983774 -0.049945325 0.23494983 -0.08942963 -0.06302826
0.14331368 -0.2045578 -0.0014704732 0.024882808 -0.2342999 -0.32310006 0.3742092 0.076815754
-0.25975385 0.08537945 -0.0887965 0.10684187 -0.18506765 -0.0639325 0.20719281 0.20013356
0.3173165 0.22339392 -0.16718872 -0.15774183 0.082773745 -0.120735355 0.010548994 -0.17399363
0.14212805 -0.03743522 -0.020968458 -0.0991484 -0.072764024 0.07500848 -0.22028561 -0.46102282
0.15158053 -0.005660519 0.11358388 -0.014372375 -0.25353983 0.15482742 -0.08937304 -0.010316469
-0.034182683 0.114691526 0.24255064 -0.01382647 -0.19084963 0.24670866 0.072280645 -0.1005566
0.17854461 -0.12220662 0.18145941 -0.10344958 -0.18845937 -0.21155252 0.1779766 -0.061513335
0.19542336 -0.14170411 -0.115413055 0.13753612 0.17502815 0.21906355 0.06253465 -0.17255524
0.13795939 -0.25237086 0.13748294 0.11195271 -0.019360393 -0.025724748 0.25559214 0.06999727
-0.5354538 -0.63589007 0.18138447 0.0041920943 0.47075906 -0.252786 0.058915216 -0.059711486
0.2656698 -0.22573932 0.13527851 0.1125651 0.09620312 0.027554173 0.32242295 0.25070134
-0.13227114 -0.03841909 -0.15750165 -0.17532864 0.14729354 -0.2023595 0.21745822 -0.10493766
-0.09838166 0.1856674 0.15325692 -0.20825283 0.6315371 0.9603028 0.043371893 0.018596996
-0.062135994 0.06881909 0.040183127 -0.11144735 0.077770144 -0.16635953 0.14630763 0.06853323
-0.17893994 -0.19709381 0.32007778 0.17742883 0.18315615 -0.11077375 -0.10065215 0.07871446
0.13522199 0.06711343 0.15975294 -0.040577047 -0.26399693 0.15100197 -0.120265335 -0.059217874
0.06967209 -0.226856 -0.17886057 0.26624537 0.034052238 -0.114612 0.045842025 -0.2359803
-0.1373512 -0.08837334 -0.14415066 -0.046393048 0.07036084 -0.105191305 -0.06147088 0.36686844
-0.25082326 -0.036482673 -0.20092796 0.26001775 -0.04740069 0.14997426 0.15920419 0.22645631
00000000: c011 633e 842f 8b3d 0f87 803e 4a65 0ebe
00000010: 82e7 9dbd 757f 9d3d fe94 24be 4bc7 33be
00000020: 1c7f 8c3e b8d4 6d3e c1de b2bd c3ae 973c
00000030: 1948 183d ad37 eabd a7d2 9b3d 5461 d73d
00000040: 3ce6 d63d cfea 843e eec5 0ebe c7b9 2c3e
00000050: 12be 6c3e ca61 b4bd 148e ba3d bc4d bd3e
00000060: aa39 96bd 7607 5f3c 6776 68be 63fe 17be
00000070: c8e2 83be 74d9 7abe 08c8 2e3d 42f5 6f3e
00000080: 1395 7a3d 4d68 a53d 4ab7 683e a0eb 26be
00000090: 3200 5b3e 93e9 f03e ffc8 063d d3c4 dabd
000000a0: 3984 aabb 52e2 8bbd 100f 0cbe 20fc 8a3d
000000b0: 2a56 9fbd 4445 83bd eaf4 743e 9bf8 c33b
000000c0: 0091 5b3e 1a32 5bbe 80bc 323e 8b94 f63d
000000d0: 3657 0dbe b46a a63d 5272 52be 7831 1dbe
000000e0: f030 d1bd 8e88 6f3e 000a 27be 6a85 60be
000000f0: e0cd a1bd a4f2 6f3e 2c84 b9bd 4066 5fbe
00000100: d25c 98be 47bb dabe b9b3 4abe 85d8 04be
00000110: ffba 90bc c269 0bbc 4683 4bbd c449 c43d
00000120: 10a6 eebd d821 33be 275e 49be 1b06 7ebd
00000130: 3093 73bd a252 c53b 3296 dabd 1aee b8be
00000140: 2bc0 55be b634 c0be 8886 143d eceb 333d
00000150: 3599 a3bd 88c8 65be 3467 c63d 61bd cb3d
00000160: f835 d1bd 14c5 283e 1037 923c d1be 34be
00000170: 19cd babe e084 bbbe 6ee6 20be e8bd eebd
00000180: 7ac0 473e b417 13be fa2e 2a3e 44a2 4cbe
00000190: 7893 4cbd b096 703e e226 b7bd f614 81bd
000001a0: d2c0 123e 9a77 51be e5bc c0ba 08d7 cb3c
000001b0: 50ec 6fbe 5f6d a5be 5998 bf3e 9451 9d3d
000001c0: 75fe 84be 6cdb ae3d f0da b5bd e9cf da3d
000001d0: 6082 3dbe 0bef 82bd 5a2a 543e d0ef 4c3e
000001e0: 4f77 a23e 60c1 643e 8533 2bbe 1387 21be
000001f0: 4885 a93d 1944 f7bd b0d5 2c3c 632b 32be
00000200: 048a 113e ac55 19bd 0bc6 abbc 510e cbbd
00000210: 4e05 95bd 0c9e 993d 8d92 61be 2f0b ecbe
00000220: ed37 1b3e e07b b9bb aa9e e83d 1c7a 6bbc
00000230: f9cf 81be 148b 1e3e 3609 b7bd 6806 29bc
00000240: 2403 0cbd 64e3 ea3d 325f 783e 6b88 62bc
00000250: 166e 43be 32a1 7c3e e007 943d 9ef0 cdbd
00000260: 66d4 363e 7747 fabd 7fd0 393e 60dd d3bd
00000270: 7efb 40be 39a1 58be 7f3f 363e 68f5 7bbd
00000280: 101d 483e e21a 11be ae5d ecbd 45d6 0c3e
00000290: 943a 333e 3252 603e 2b12 803d 52b2 30be
000002a0: 3a45 0d3e c136 81be 54c8 0c3e 7647 e53d
000002b0: b099 9ebc b5bc d2bc f9dc 823e bb5a 8f3d
000002c0: 8013 09bf b1c9 22bf dabc 393e d65d 893b
000002d0: 5507 f13e 2b6d 81be 1551 713d 0894 74bd
000002e0: df05 883e 3528 67be 7386 0a3e 8888 e63d
000002f0: 2406 c53d 4ab9 e13c 9f14 a53e ed5b 803e
00000300: 1672 07be 565d 1dbd 1d48 21be 5a89 33be
00000310: 1ed4 163e 5437 4fbe 5ead 5e3e 8ee9 d6bd
00000320: 537c c9bd 981f 3e3e 62ef 1c3e 3b40 55be
00000330: 6aac 213f 68d6 753f baa6 313d ba58 983c
00000340: 5082 7ebd 06f1 8c3d 1097 243d 823e e4bd
00000350: f445 9f3d 275a 2abe abd1 153e 265b 8c3d
00000360: 083c 37be f6d2 49be 3ce1 a33e e7af 353e
00000370: 498d 3b3e 59dd e2bd b722 cebd 0c35 a13d
00000380: a277 0a3e c472 893d 4696 233e 1e34 26bd
00000390: 9b2a 87be 43a0 1a3e ac4d f6bd 718e 72bd
000003a0: 3eb0 8e3d f04c 68be 3a27 37be 5051 883e
000003b0: 5c7a 0b3d b2b9 eabd d9c4 3b3d d2a4 71be
000003c0: cba5 0cbe 15fd b4bd 3b9c 13be a306 3ebd
000003d0: 5819 903d 8a6e d7bd e4c8 7bbd 2ed6 bb3e
000003e0: e86b 80be db6e 15bd 0fc0 4dbe 0c21 853e
000003f0: 3a27 42bd da92 193e 6c06 233e 2ae4 673e

0.bias f4 [20]
0.12028849 -0.13173357 0.33977765 0.018601708 0.1292127 0.30795592 0.35414085 -0.15569535
0.027285885 0.30140898 -0.2566677 0.20967013 0.17091611 -0.001863374 0.82439554 -0.075881265
-0.26480144 0.23484376 0.014250216 -0.19816016
00000000: d059 f63d 2ae5 06be 56f7 ad3e 9c62 983c
00000010: 5650 043e 66ac 9d3e f351 b53e 9a6e 1fbe
00000020: a686 df3c 4752 9a3e f369 83be c4b3 563e
00000030: a204 2f3e 753c f4ba 960b 533f a367 9bbd
00000040: 0e94 87be e27a 703e bd79 693c 7fea 4abe

2.weight f4 [2, 20]
0.26721907 0.21388619 0.42251578 -0.019464983 -0.4501094 -0.30155134 -0.5215183 -0.04622257
0.26961398 -0.46230355 -0.017370615 -0.0025934987 -0.707984 0.24099505 1.023031 0.29911444
-0.15909083 0.20724641 0.2300995 0.107204854 -0.11317449 -0.3242625 -0.23012473 -0.24088904
0.13075823 0.23327038 0.21168232 0.2847425 -0.15030734 0.28634796 -0.03753851 -0.02574347
0.44005027 -0.12852484 -0.8076249 -0.0774496 -0.07053248 -0.34108773 0.11597327 -0.0067882603
00000000: f0d0 883e fb04 5b3e fd53 d83e 0775 9fbc
00000010: bd74 e6be f064 9abe 3982 05bf e153 3dbd
00000020: d80a 8a3e 0db3 ecbe d24c 8ebc b0f7 29bb
00000030: 703e 35bf 68c7 763e aef2 823f 8725 993e
00000040: b5e8 22be 6738 543e 349f 6b3e 388e db3d
00000050: 07c8 e7bd bc05 a6be d1a5 6bbe 9eab 76be
00000060: 7ce5 053e 6ede 6e3e 40c3 583e c5c9 913e
00000070: 2bea 19be 339c 923e fbc1 19bd f8e3 d2bc
00000080: 454e e13e 049c 03be 81c0 4ebf e59d 9ebd
00000090: 5573 90bd 0da3 aebe 6583 ed3d 0e70 debb

2.bias f4 [2]
0.107791156 -0.14331704
00000000: 9cc1 dc3d b4c1 12be
