Examenes/Examen Final/resultados_modelo_20241126_000345/model.pth (torch, 4800 bytes, 4 tensors)

0.weight f4 [20, 14]
0.036298536 -0.18781282 -0.14789097 -0.078088604 -0.22342826 0.14210933 0.20056304 -0.2588307
-0.4000649 -0.099231765 0.12257588 -0.18929408 0.19630001 0.041828018 -0.044255346 -0.23406294
0.19981119 0.1472706 0.2313296 -0.2566012 0.2526954 0.16700634 0.62846905 0.96757483
-0.0636907 -0.014288807 -0.15324871 0.15009466 -0.08177958 -0.14100902 0.023463994 0.0861335
0.19566213 0.030936718 -0.18841791 0.20565754 -0.29123053 -0.38735124 0.04556637 -0.23140708
0.16755176 0.10313861 0.07143296 0.0665099 -0.032380268 -0.06814304 0.12204331 0.07347646
-0.06737101 0.11315251 -0.20622084 -0.8842639 -0.033383187 0.10232053 0.39554477 -0.29671744
0.12773256 0.09892911 0.25292793 -0.11107807 0.2716206 -0.23216254 0.17851049 0.17674254
0.05303363 0.08837811 0.06393649 -0.15043095 -0.069660075 -0.12134042 -0.2364236 -0.2587646
0.20418203 0.17839591 -0.20719203 0.18197848 -0.088511884 0.121048465 -0.42340255 -0.39926967
-0.05979483 0.13259508 0.15488616 -0.0611576 0.15083534 0.14620191 0.111540884 0.15695132
0.17291895 -0.2627796 0.20935374 0.05633599 -0.5027147 -0.59581447 0.10410854 -0.1493898
0.10693759 -0.058244336 -0.061102323 -0.14514422 -0.20674571 0.11114791 0.16583379 -0.055545375
-0.084196195 -0.0627079 -0.46204278 -0.8746584 0.060153894 -0.25149825 0.1415916 0.10653084
0.15185322 0.1506395 -0.17928495 -0.13454574 -0.24208826 0.18608432 -0.2306426 0.17530487
0.41873538 0.60854596 0.12730241 -0.08193048 -0.039559796 0.12209746 0.08445786 -0.04233387
-0.023737922 -0.0104871765 -0.21047132 0.15192026 -0.015968412 0.091896 0.73586285 1.128691
0.157011 0.027025478 -0.2912441 0.13998067 -0.21277118 0.054639727 0.22223967 0.2191265
0.05815828 0.22794922 0.20964983 -0.2023374 0.18095896 -0.08507155 0.18652178 -0.018776698
0.20246297 0.1607902 -0.17089173 0.11749992 -0.21697937 0.19587256 0.054397102 0.175782
-0.095514596 0.09534566 -0.57356787 -0.8724477 0.0845115 0.004878392 0.27064377 -0.13687843
-0.00089033996 0.049082756 0.22212729 -0.10040059 -0.0059999325 0.15873347 -0.21451819 -0.25180364
0.071231514 -0.032063935 -0.20755552 0.09715167 0.19822411 -0.15502122 -0.04474636 -0.07873216
0.024099737 0.23205835 0.2596754 -0.23534262 -0.0052197576 -0.063742176 0.3688402 0.39426464
-0.05982441 0.2096074 -0.4153903 0.1017884 0.069892175 -0.16507962 0.11748111 0.055032704
0.21198171 0.115539975 0.114310235 0.21632601 -0.10569316 -0.11081701 -0.1342879 -0.09052949
0.004597186 -0.18931407 -0.11763421 0.15117481 -0.21645093 0.05851031 -0.018425971 0.123951904
-0.2055637 -0.20878804 -0.14519155 0.17262481 0.14110409 0.043727305 -0.25130212 0.20016883
-0.19541839 0.15122736 0.086734414 0.22176257 0.16136953 0.1821262 -0.123371184 0.06963813
-0.13468397 -0.32301086 -0.20006752 -0.030540453 -0.14997733 0.029493215 -0.26972777 0.0073902607
0.25522003 0.08212366 0.1436541 -0.020806966 -0.21605606 0.1178257 0.28683412 0.9199447
-0.08879818 0.23661551 -0.42706951 0.15414095 -0.117721885 0.23191863 -0.26340237 0.19778071
00000000: c6ad 143d 0152 40be bb70 17be ebec 9fbd
00000010: 61ca 64be 1c85 113e 6660 4d3e 7585 84be
00000020: 4ed5 ccbe 063a cbbd 1009 fb3d 4fd6 41be
00000030: df02 493e db53 2b3d 1845 35bd 32ae 6fbe
00000040: 4e9b 4c3e 1bce 163e abe1 6c3e 3c61 83be
00000050: 4b61 813e b603 2b3e 59e3 203f fcb2 773f
00000060: 4570 82bd 9a1b 6abc 3bed 1cbe 6ab2 193e
00000070: 0d7c a7bd ab64 10be 9037 c03c c366 b03d
00000080: a75b 483e 006f fd3c a0f0 40be e497 523e
00000090: 2b1c 95be e752 c6be cda3 3a3d faf5 6cbe
000000a0: b092 2b3e 563a d33d 724b 923d 5836 883d
000000b0: 2ca1 04bd 948e 8bbd d8f1 f93d d47a 963d
000000c0: d0f9 89bd 81bc e73d 8e2b 53be 1e5f 62bf
000000d0: cfbc 08bd 6d8d d13d d884 ca3e 59eb 97be
000000e0: 53cc 023e 589b ca3d c57f 813e e67c e3bd
000000f0: db11 8b3e 04bc 6dbe 74cb 363e fffb 343e
00000100: cb39 593d 95ff b43d 22f1 823d 920a 1abe
00000110: f1a9 8ebd 5381 f8bd 0719 72be cb7c 84be
00000120: 1815 513e 6bad 363e 262a 54be 9158 3a3e
00000130: b845 b5bd 42e8 f73d 38c8 d8be 136d ccbe
00000140: 6ceb 74bd 01c7 073e 7a9a 1e3e 6480 7abd
00000150: 9474 1a3e f4b5 153e 8c6f e43d d9b7 203e
00000160: aa11 313e 0c8b 86be d460 563e 91c0 663d
00000170: e9b1 00bf 4c87 18bf dc36 d53d a4f9 18be
00000180: 1802 db3d 9d91 6ebd 6e46 7abd b0a0 14be
00000190: 26b5 53be 84a1 e33d 55d0 293e 8c83 63bd
000001a0: 0e6f acbd 006d 80bd df90 ecbe 9de9 5fbf
000001b0: ee63 763d 61c4 80be 63fd 103e d72c da3d
000001c0: 697f 1b3e 3e41 1a3e 7996 37be 5cc6 09be
000001d0: fce5 77be e38c 3e3e 932d 6cbe 1f83 333e
000001e0: 7c64 d63e abc9 1b3f 905b 023e 2bcb a7bd
000001f0: 7409 22bd 3c0e fa3d 3ef8 ac3d 4866 2dbd
00000200: 0876 c2bc 68d2 2bbc cb85 57be fc90 1b3e
00000210: 30d0 82bc f833 bc3d 8261 3c3f f278 903f
00000220: 7ec7 203e 8964 dd3c f21d 95be 1857 0f3e
00000230: b0e0 59be e8cd 5f3d cc92 633e b262 603e
00000240: 6037 6e3d 856b 693e 72ae 563e 8931 4fbe
00000250: 4e4d 393e fe39 aebd 91ff 3e3e 97d1 99bc
00000260: 7452 4f3e 30a6 243e 3efe 2ebe cca3 f03d
00000270: d72f 5ebe d192 483e 7fcf 5e3d 3200 343e
00000280: 289d c3bd 9644 c33d 58d5 12bf bc58 5fbf
00000290: 5e14 ad3d ebda 9f3b d291 8a3e dc29 0cbe
000002a0: b465 69ba 000b 493d 5675 633e d39e cdbd
000002b0: 159b c4bb 078b 223e a8aa 5bbe 68ec 80be
000002c0: d4e1 913d 7955 03bd 6f89 54be 74f7 c63d
000002d0: 43fb 4a3e e2bd 1ebe f647 37bd 543e a1bd
000002e0: d06c c53c b4a0 6d3e 2df4 843e a8fd 70be
000002f0: 800a abbb 428b 82bd 9fd8 bc3e 0edd c93e
00000300: 710a 75bd 52a3 563e 0aae d4be 7076 d03d
00000310: a123 8f3d a20a 29be f099 f03d f969 613d
00000320: bc11 593e 39a0 ec3d 7c1b ea3d 9184 5d3e
00000330: a875 d8bd 07f4 e2bd c482 09be 8667 b9bd
00000340: fea3 963b 8cdb 41be 34ea f0bd 92cd 1a3e
00000350: 50a5 5dbe 82a8 6f3d 10f2 96bc 7fda fd3d
00000360: 4a7f 52be 88cc 55be 18ad 14be 8fc4 303e
00000370: 977d 103e 671b 333d acaa 80be 0ff9 4c3e
00000380: c21b 48be 58db 1a3e d0a1 b13d ba15 633e
00000390: 0e3e 253e 4a7f 3a3e 08aa fcbd 709e 8e3d
000003a0: 98ea 09be ae61 a5be 80de 4cbe f92f fabc
000003b0: a893 19be c19b f13c c219 8abe 002a f23b
000003c0: 33ac 823e 7330 a83d 0f1a 133e 5f73 aabc
000003d0: cd3d 5dbe 9a4e f13d ecdb 923e 7f81 6b3f
000003e0: d2db b5bd 564b 723e dba8 dabe 20d7 1d3e
000003f0: 2c18 f1bd 147c 6d3e addc 86be 0787 4a3e

0.bias f4 [20]
-0.25833726 0.21107468 0.16806768 -0.01723702 0.113871574 0.23487721 -0.056354243 -0.22911823
-0.04757234 0.06066332 0.016137876 -0.19125925 -0.0013620321 -0.07539345 0.024912925 -0.25521606
0.08971071 0.14183179 -0.15334989 0.20661247
00000000: c844 84be f623 583e ef19 2c3e a734 8dbc
00000010: 8035 e93d a783 703e b5d3 66bd f89d 6abe
00000020: 37db 42bd 1a7a 783d 9433 843c 77d9 43be
00000030: 3786 b2ba e267 9abd 3116 cc3c aeab 82be
00000040: 40ba b73d 5a3c 113e c107 1dbe 3892 533e

2.weight f4 [2, 20]
-0.33412683 0.9275888 -0.27403435 -0.68056476 0.14134526 -0.24778911 -0.6461588 -0.5751163
0.5709435 1.0370011 0.02298772 -0.66000545 -0.06705237 0.60678643 -0.16857494 0.061801266
-0.24381047 0.8492505 0.07015938 0.4585582 0.18711957 -0.85025436 0.3779924 0.69594306
-0.13161817 0.5057253 0.40263137 0.79003024 -0.4583151 -1.0683829 0.014692627 0.84792626
0.044552024 -0.44699892 -0.03921899 -0.23420773 0.072312884 -0.81281704 -0.0060592596 -0.32440165
00000000: ac12 abbe 7676 6d3f 3b4e 8cbe 7e39 2ebf
00000010: d0bc 103e 6ebc 7dbe aa6a 25bf d23a 13bf
00000020: 5a29 123f 74bc 843f be50 bc3c 1ef6 28bf
00000030: c152 89bd 5b56 1b3f e99e 2cbe 5323 7d3d
00000040: 74a9 79be 7b68 593f b9af 8f3d 24c8 ea3e
00000050: 469c 3f3e 45aa 59bf 3888 c13e 5329 323f
00000060: eac6 06be 3777 013f b325 ce3e 6c3f 4a3f
00000070: 47a8 eabe c5c0 88bf 58b9 703c b211 593f
00000080: 2f7c 363d 0bdd e4be 17a4 20bd 27d4 6fbe
00000090: c718 943d c714 50bf c18c c6bb f917 a6be

2.bias f4 [2]
-0.08668911 0.057112914
00000000: 0f8a b1bd 3bef 693d
